model_storage/ch6/surname_classification/model.pth (torch, 98722 bytes, 9 tensors)

emb.weight f4 [80, 100]
0	0x00000000	0.0
1	0x00000000	0.0
2	0x00000000	0.0
3	0x00000000	0.0
4	0x00000000	0.0
5	0x00000000	0.0
6	0x00000000	0.0
7	0x00000000	0.0
8	0x00000000	0.0
9	0x00000000	0.0
10	0x00000000	0.0
11	0x00000000	0.0
12	0x00000000	0.0
13	0x00000000	0.0
14	0x00000000	0.0
15	0x00000000	0.0
16	0x00000000	0.0
17	0x00000000	0.0
18	0x00000000	0.0
19	0x00000000	0.0
20	0x00000000	0.0
21	0x00000000	0.0
22	0x00000000	0.0
23	0x00000000	0.0
24	0x00000000	0.0
25	0x00000000	0.0
26	0x00000000	0.0
27	0x00000000	0.0
28	0x00000000	0.0
29	0x00000000	0.0
30	0x00000000	0.0
31	0x00000000	0.0
32	0x00000000	0.0
33	0x00000000	0.0
34	0x00000000	0.0
35	0x00000000	0.0
36	0x00000000	0.0
37	0x00000000	0.0
38	0x00000000	0.0
39	0x00000000	0.0
40	0x00000000	0.0
41	0x00000000	0.0
42	0x00000000	0.0
43	0x00000000	0.0
44	0x00000000	0.0
45	0x00000000	0.0
46	0x00000000	0.0
47	0x00000000	0.0
48	0x00000000	0.0
49	0x00000000	0.0
50	0x00000000	0.0
51	0x00000000	0.0
52	0x00000000	0.0
53	0x00000000	0.0
54	0x00000000	0.0
55	0x00000000	0.0
56	0x00000000	0.0
57	0x00000000	0.0
58	0x00000000	0.0
59	0x00000000	0.0
60	0x00000000	0.0
61	0x00000000	0.0
62	0x00000000	0.0
63	0x00000000	0.0
64	0x00000000	0.0
65	0x00000000	0.0
66	0x00000000	0.0
67	0x00000000	0.0
68	0x00000000	0.0
69	0x00000000	0.0
70	0x00000000	0.0
71	0x00000000	0.0
72	0x00000000	0.0
73	0x00000000	0.0
74	0x00000000	0.0
75	0x00000000	0.0
76	0x00000000	0.0
77	0x00000000	0.0
78	0x00000000	0.0
79	0x00000000	0.0
80	0x00000000	0.0
81	0x00000000	0.0
82	0x00000000	0.0
83	0x00000000	0.0
84	0x00000000	0.0
85	0x00000000	0.0
86	0x00000000	0.0
87	0x00000000	0.0
88	0x00000000	0.0
89	0x00000000	0.0
90	0x00000000	0.0
91	0x00000000	0.0
92	0x00000000	0.0
93	0x00000000	0.0
94	0x00000000	0.0
95	0x00000000	0.0
96	0x00000000	0.0
97	0x00000000	0.0
98	0x00000000	0.0
99	0x00000000	0.0
100	0x3d013969	0.03154889
101	0xbf3ded43	-0.7419016
102	0xbe9877e0	-0.29778957
103	0x3c8c9f03	0.017165666
104	0xbe357a2f	-0.1772239
105	0xbe08a1bf	-0.13342951
106	0x3e968194	0.29395735
107	0x3fb1462d	1.3849541
108	0x3df7a11c	0.12091276
109	0x4022aca4	2.5417871
110	0xbf23f530	-0.64046
111	0xbffcac60	-1.9740105
112	0xbea8bd4d	-0.32956925
113	0x3c0265d7	0.007958851
114	0x3f6d1db9	0.9262348
115	0xbff1391e	-1.8845556
116	0x3e2af7fb	0.1669616
117	0x3eead08c	0.45862234
118	0xbfe2130e	-1.7662065
119	0x3f160331	0.5859862
120	0x3fe021cd	1.7510315
121	0x3e8fbad0	0.28072214
122	0x3e9f3690	0.31096315
123	0xbf275cb0	-0.65375805
124	0xbf285a33	-0.65762633
125	0x3ea30bce	0.31844944
126	0xbf0cb1b3	-0.5495865
127	0xbfbb82a5	-1.4649245
128	0xc0038d57	-2.0555017
129	0x3fe9ea4b	1.8274626
130	0x3fa6d9ff	1.3035277
131	0xbee677b4	-0.450132
132	0x3fac6e7a	1.3471215
133	0x3fd87209	1.6909801
134	0xbdfedd68	-0.12444574
135	0xbfd757c9	-1.6823665
136	0xbcd9f91d	-0.026608044
137	0x3d97a71a	0.07404919
138	0x3f869e98	1.0517149
139	0x3f2d8a69	0.6778932
140	0x3e9d01da	0.30665475
141	0xbf3f4aae	-0.7472333
142	0x3f3e55a4	0.7434943
143	0x3f633d88	0.88765764
144	0x4012655c	2.2874365
145	0x3f760d2d	0.96113855
146	0xbfc3cce4	-1.5296903
147	0xbe951b65	-0.29122463
148	0xbde95faf	-0.11395203
149	0xbea09916	-0.31366795
150	0xbf211a92	-0.6293117
151	0x3f91ba97	1.1385068
152	0xbf7dc421	-0.99127394
153	0x3e2e11a6	0.1699892
154	0x3f9cc8a8	1.2248735
155	0xbe702afb	-0.23453896
156	0xbf875109	-1.0571605
157	0xbf277e14	-0.65426755
158	0x3fcba21f	1.590885
159	0xbf3311e0	-0.6994915
160	0xbf6563f1	-0.89605623
161	0x3d878f4e	0.0661913
162	0xbd66861d	-0.056280244
163	0x4015d699	2.341223
164	0xc02e4cba	-2.723433
165	0x3f0279ee	0.509673
166	0xbf508105	-0.8144687
167	0xbe7bf204	-0.2460404
168	0x3b93bc67	0.0045085433
169	0x40030917	2.0474298
170	0xbe2153a3	-0.15754561
171	0xbe5feb2a	-0.21867052
172	0xbfad0c0c	-1.3519301
173	0xbd6a9f0e	-0.057280593
174	0xbfed4f27	-1.853978
175	0xbfb14413	-1.38489
176	0xbeb0d83a	-0.34539968
177	0xbf94ccec	-1.1625037
178	0x3e13f2c5	0.14448078
179	0x3e2a509c	0.16632313
180	0x3f402dda	0.75069964
181	0x3f69c5b3	0.9131729
182	0xbfdd2691	-1.7277395
183	0x3fa71bee	1.3055398
184	0x3f759637	0.95932335
185	0x3f87acdd	1.0599629
186	0x3f213ebd	0.62986356
187	0xbfa4b177	-1.2866658
188	0xbf2ffec4	-0.68748116
189	0x4008d894	2.1382189
190	0x3f02ebea	0.51141226
191	0x3f9c0b24	1.21909
192	0x3e439049	0.19098009
193	0xbeaf5d2f	-0.3425078
194	0x3fe5d33b	1.7955087
195	0x3fb21b58	1.3914595
196	0x3f8a0d09	1.0785228
197	0xbf1d6d78	-0.6149516
198	0xbeeaeecd	-0.45885316
199	0x3f114679	0.5674816
200	0x3d3fac38	0.0467951
201	0xbfdc15d0	-1.7194157
202	0x3fa21043	1.2661213
203	0x3ec24bbd	0.3794841
204	0xbf92a4a0	-1.145649
205	0xbf863b66	-1.0486877
206	0xbdb80c5f	-0.089867346
207	0x3d3d0464	0.046146765
208	0x3e4e3f73	0.20141391
209	0xbf33954b	-0.7014968
210	0xbed87f67	-0.422847
211	0xbf07647a	-0.5288769
212	0x3f3be183	0.7339098
213	0x3f0a536a	0.5403353
214	0x3f953753	1.1657509
215	0x3f43c59b	0.76473397
216	0x3ef134ff	0.47110745
217	0x3f8620f1	1.0478803
218	0xbe929f38	-0.286371
219	0xbf4d9fcf	-0.80321974
220	0xbf2182e8	-0.6309037
221	0x3ea77b21	0.32711127
222	0xbf0ab8b1	-0.54188067
223	0xbf067308	-0.52519274
224	0xbf219876	-0.6312326
225	0xbe7fd6b4	-0.24984246
226	0xbdf01af4	-0.11723891
227	0xbe9ccdb7	-0.30625698
228	0xbd63420d	-0.055482913
229	0x3f339c52	0.701604
230	0xbdea8546	-0.11451201
231	0xbf1c622e	-0.6108731
232	0x3f6b8cce	0.92011726
233	0xbfd12645	-1.6339804
234	0x3f23ea09	0.64028984
235	0xbffa8ad7	-1.957362
236	0xbf7e728f	-0.9939355
237	0x3de70676	0.11280529
238	0xbeead2ac	-0.45863855
239	0xbee93292	-0.45546395
240	0x3fb47bd2	1.4100287
241	0xbd4d6a30	-0.050150096
242	0xbf53cc8a	-0.82733977
243	0xbf98d6bc	-1.1940532
244	0x3eefa9d8	0.46809268
245	0xbe8e5278	-0.27797294
246	0xbd4fbbd7	-0.050716247
247	0xbf57edcd	-0.8434723
248	0xbe4a9e9a	-0.19787064
249	0x3e52ceaa	0.20586649
250	0xbf442101	-0.7661286
251	0xbfb42bd2	-1.4075873
252	0x3f94af5b	1.1616014
253	0xbff678db	-1.9255632
254	0xbf081be8	-0.5316758
255	0x3f934c20	1.1507607

rnn.rnn_cell.weight_ih f4 [64, 100]
0	0xbda9232b	-0.08258661
1	0x3d198a39	0.037485335
2	0xbc58aaf4	-0.013224352
3	0xbda68bab	-0.08132108
4	0xbe054964	-0.13016278
5	0x3e02923c	0.12751096
6	0xbcb911ec	-0.022591554
7	0x3e0ae90c	0.13565463
8	0xbd9b4cf6	-0.075830385
9	0xbd0e91a5	-0.034806866
10	0x3d5e0821	0.05420697
11	0x3db44982	0.08803083
12	0xbd8bd50a	-0.06827743
13	0xbdb17d8c	-0.08666524
14	0xbdac00e7	-0.083986096
15	0xbd913529	-0.070902176
16	0x3c940fd2	0.01807395
17	0x3d78b45f	0.06071889
18	0x3cad9f66	0.021194171
19	0xbde95796	-0.11393659
20	0xbdb46ea7	-0.08810168
21	0xbd8f3981	-0.0699339
22	0xbd0bad81	-0.034101013
23	0xbd09980d	-0.033592273
24	0x3da98d68	0.08278924
25	0xbe045465	-0.12922819
26	0x3da71a90	0.08159363
27	0xbdc7d723	-0.09757831
28	0xbd8c708b	-0.06857403
29	0x3cbba346	0.022905003
30	0x3c1ea83f	0.009683668
31	0x3dc77ac8	0.097402155
32	0xbd9867e7	-0.07441693
33	0x3db73bff	0.0894699
34	0xbdd1dd99	-0.102473445
35	0x3da110a6	0.078645036
36	0x3de95458	0.113930404
37	0x3db63221	0.0889628
38	0x3df238e1	0.11827255
39	0x3d75f990	0.060052454
40	0xbde63f41	-0.112425335
41	0xbdf4781d	-0.11936972
42	0xbd2ede0d	-0.042692233
43	0x3d66a724	0.05631174
44	0x3df3402b	0.118774734
45	0x3d81ada3	0.06331947
46	0xbd0f5e5f	-0.03500211
47	0x3d3c1a74	0.045923665
48	0x3d7747c1	0.060371164
49	0xbd16b452	-0.03679306
50	0xbd88a8ee	-0.06672846
51	0xbe1de238	-0.15418327
52	0x3c8ba812	0.017047916
53	0x3d67e9d6	0.056619488
54	0xbdc3e82b	-0.09565767
55	0xbdc624a5	-0.09674958
56	0x3d30fcbd	0.04320978
57	0x3d20fa5b	0.039301258
58	0xbd4d6d78	-0.050153226
59	0x3d98245f	0.07428812
60	0xbdb3cd35	-0.087793745
61	0x3d78cd69	0.06074277
62	0x3d23a532	0.039952464
63	0x3c927d6a	0.017882068
64	0xbda59e48	-0.080868304
65	0x3d900cbc	0.07033679
66	0xbdbb7c97	-0.09154623
67	0x39a943d4	0.00032284728
68	0xbe02be1f	-0.12767838
69	0xbde3457f	-0.1109724
70	0x3bb400a3	0.00549324
71	0xbd5520ec	-0.05203335
72	0xbdcd9f19	-0.10040111
73	0xbd8d81c2	-0.06909515
74	0x3c075404	0.008259777
75	0x3dfa91b0	0.12234819
76	0xbd4fcbba	-0.0507314
77	0x3dc3fad4	0.09569326
78	0xbda92e5e	-0.08260797
79	0x3be03367	0.006842065
80	0x3ddd2a31	0.10799063
81	0x3d9668f7	0.07344239
82	0xbe0e3686	-0.13887987
83	0x3db90433	0.09034004
84	0xbd28b5e7	-0.0411891
85	0x3d8a9712	0.067670956
86	0xbd73f9d5	-0.05956443
87	0x3d4f5203	0.05061532
88	0x3c245719	0.010030531
89	0x3cd95d36	0.026533704
90	0x3e209431	0.1568153
91	0xbccb5013	-0.024818456
92	0x3de380f4	0.1110858
93	0xbde44d27	-0.11147528
94	0xbe01e51a	-0.12685052
95	0xbdc0f9ba	-0.094226316
96	0x3df2b4d4	0.118508965
97	0xbd614534	-0.054997638
98	0x3d2f1088	0.042740375
99	0x3d911fbd	0.07086132
100	0x3d08b82e	0.033378772
101	0x3d38a7ea	0.04508201
102	0x3d73aa71	0.059488717
103	0x3df03e73	0.11730661
104	0xbe26f51e	-0.16304442
105	0xbd04024f	-0.032228764
106	0x3b77f925	0.003783771
107	0xbd14f855	-0.03636964
108	0xbd5e00e0	-0.054200053
109	0xbd7dcf1c	-0.061965093
110	0x3cb44817	0.022007031
111	0xbb13817c	-0.0022507599
112	0x3dbeab98	0.09310073
113	0xbd236178	-0.039887875
114	0x3d955a26	0.07292585
115	0xbdff450c	-0.124643415
116	0x3d85f5c6	0.06541018
117	0xbd96009d	-0.07324336
118	0xbd7a9130	-0.061173618
119	0xbc95cba5	-0.018285582
120	0xbd29d453	-0.041462254
121	0xbde23d0c	-0.110468
122	0xbcd8db28	-0.02647169
123	0x3d7412f5	0.05958839
124	0x3c9b21e5	0.01893706
125	0x3e157397	0.14594875
126	0xbd16f1da	-0.03685174
127	0xbe186730	-0.14883113
128	0xbdbf15b5	-0.09330312
129	0xbc954329	-0.018220501
130	0x3e19e836	0.15029988
131	0x3dbf6557	0.09345501
132	0x3c83ef04	0.016105182
133	0xbdd2a6a0	-0.102856874
134	0x3d697dbf	0.057004686
135	0x3dc3d48e	0.09562026
136	0x3d746174	0.05966325
137	0xbd196892	-0.03745324
138	0xbdecb5fc	-0.11558148
139	0x3d88753a	0.06662984
140	0x3dd78441	0.10523272
141	0xbd8416ec	-0.064496845
142	0xbdb6c035	-0.08923379
143	0x3d34e577	0.044164147
144	0xbe103e74	-0.14086324
145	0xbd11b7df	-0.035575744
146	0xbd89aaa8	-0.06722003
147	0xbdd4de9d	-0.103940226
148	0x3d4ab446	0.04948833
149	0x3b25f94e	0.00253256
150	0xbdd9613d	-0.1061425
151	0xbe01bbbb	-0.1266927
152	0x3d546bba	0.05186055
153	0xbddd391b	-0.10801908
154	0x3ccaf376	0.024774294
155	0x3df7db21	0.121023424
156	0x3e11fbba	0.14256182
157	0xbd3323f5	-0.043735463
158	0xbd850d81	-0.06496716
159	0x3cff7677	0.031184418
160	0xbd95258a	-0.07282551
161	0xbcaa3f4c	-0.020782135
162	0xbda6190d	-0.08110247
163	0x3d579eee	0.0526418
164	0xbd8a02e5	-0.06738833
165	0x3dae6365	0.08515052
166	0xbb36796b	-0.0027843367
167	0x3da59e24	0.080868036
168	0xbe432f9c	-0.1906113
169	0xbd98bb34	-0.07457581
170	0x3c68769c	0.014188435
171	0x3dca70bc	0.098847836
172	0x3d410efc	0.04713343
173	0xbc88de43	-0.016707545
174	0xbd032515	-0.032017786
175	0xbc07ca47	-0.008287973
176	0xbc2885a0	-0.010285765
177	0x3ca4458b	0.020052692
178	0xbd129413	-0.035785746
179	0xbd313732	-0.04326553
180	0x3c4244f8	0.011857264
181	0x3dcef4c3	0.10105278
182	0x3de21d21	0.11040712
183	0xbe115656	-0.14193091
184	0xbda2414a	-0.07922609
185	0xbd6e0892	-0.058113642
186	0x3d88510a	0.06656082
187	0xbe15f42d	-0.14643927
188	0xbdc1de27	-0.094662
189	0x3d779ef4	0.060454324
190	0xbd6822a7	-0.056673672
191	0xbd00fe7a	-0.031492688
192	0x3d556dfc	0.052106842
193	0xbaa263b9	-0.0012389339
194	0xbd1ff147	-0.03904846
195	0x3d774c00	0.060375214
196	0x3d35f4bf	0.04442286
197	0xbd987a53	-0.074452065
198	0xbe00e4d7	-0.12587295
199	0x3e1fde9c	0.15612262
200	0x3d5c8fb2	0.053847976
201	0x3da08fa2	0.07839896
202	0x3c99ca97	0.01877336
203	0xbc978610	-0.018496543
204	0x3cfe41ba	0.0310372
205	0x3d88dee0	0.06683135
206	0x3dcb914e	0.09939824
207	0xbd6af20a	-0.057359733
208	0xbd7f9653	-0.06239922
209	0x3ac295d6	0.001484568
210	0xbd81a68e	-0.06330596
211	0xbdb63d82	-0.088984504
212	0x3d8187b3	0.06324711
213	0xbd2fed42	-0.042950876
214	0x3d9de83e	0.07710312
215	0xbcb47abf	-0.022031186
216	0x3d5f88b9	0.05457375
217	0xbe05495a	-0.13016263
218	0xbd3ebe7e	-0.046568386
219	0xbc052c86	-0.008128291
220	0xbd34d0f6	-0.044144593
221	0x3d6420c4	0.05569531
222	0x3d729dec	0.059232637
223	0x3da4ae5f	0.08041071
224	0x3d851c75	0.064995684
225	0x3d0fdb8a	0.03512148
226	0x3d34a07c	0.044098362
227	0x3d42bcb0	0.047543228
228	0x3947371e	0.00018998652
229	0xbdb63446	-0.08896689
230	0x3d947ea6	0.07250719
231	0xbda9bded	-0.082881786
232	0x3d7c7ca4	0.061642304
233	0xbab219d3	-0.0013588018
234	0xbbd30ddd	-0.0064408616
235	0x3dede72c	0.11616358
236	0xbd973513	-0.0738317
237	0x3dbc6a85	0.092000045
238	0x3da6094b	0.08107241
239	0xbc807c5b	-0.015684297
240	0xbda3b41c	-0.079933375
241	0xbdd11f94	-0.10211101
242	0x3da71b4b	0.081595026
243	0xbc332fc4	-0.010936681
244	0xbddccce6	-0.10781269
245	0xbd134e60	-0.035963416
246	0x3d788cd0	0.060681164
247	0x3be1a909	0.0068866056
248	0xbe00ffe4	-0.12597615
249	0x3ca70c62	0.020391647
250	0xbe150579	-0.14552869
251	0x3dc8ecb2	0.09810771
252	0x3d4a1f7c	0.049346432
253	0xbc83c90c	-0.016087078
254	0x3d881e14	0.06646362
255	0xbdf84a6f	-0.12123572

rnn.rnn_cell.weight_hh f4 [64, 64]
0	0x3df50c7f	0.11965274
1	0x3bd32d16	0.0064445836
2	0x3d30d82a	0.0431749
3	0xbda88f3c	-0.08230445
4	0xbe12f139	-0.14349832
5	0x3d418f2b	0.047255676
6	0xbd0f9e1a	-0.035062887
7	0x3e200e4d	0.15630455
8	0xbdab212b	-0.08355936
9	0x3e2cf8d2	0.16891792
10	0x3d033281	0.032030586
11	0xbd195d7f	-0.03744268
12	0xbda32f31	-0.079679854
13	0x3d083d10	0.03326136
14	0x3e13a0db	0.1441683
15	0x3e2ff380	0.17182732
16	0xbc4c285e	-0.012460796
17	0x3dd3f203	0.103488944
18	0x3e0ec7fa	0.13943473
19	0xbb8e1065	-0.0043354505
20	0x3beb2ca1	0.007176951
21	0x3e0b2c52	0.13591126
22	0xbd14aded	-0.03629868
23	0xbd97cee3	-0.074125074
24	0x3d994eb3	0.07485714
25	0x39a783fd	0.0003195106
26	0xbe07ce6f	-0.13262342
27	0x3d73519b	0.059403997
28	0xbd9b1a3b	-0.075733624
29	0x3e261c37	0.162217
30	0xbcb61cd0	-0.022230536
31	0x3c901875	0.017589787
32	0xbe06dd1b	-0.13170283
33	0x3de7fb5d	0.113272406
34	0x3d984dfa	0.07436748
35	0xbe1e64f6	-0.15468201
36	0x3cafc40b	0.021455785
37	0x3e49a528	0.19691908
38	0x3d1bc8d2	0.038033314
39	0xbdb81b33	-0.08989563
40	0x3d3e489d	0.04645597
41	0xbdbc5a66	-0.0919693
42	0xbddb4d85	-0.10708145
43	0x3daae467	0.083443455
44	0x3e11be25	0.1423269
45	0xbd6aa8f0	-0.057290018
46	0xbd9f2b05	-0.07771877
47	0xbca300bb	-0.01989781
48	0xbdeb090a	-0.114763334
49	0xbd45e6fc	-0.048315987
50	0xbdf4aa90	-0.11946595
51	0x3d0b0cc6	0.03394773
52	0xbded600e	-0.115905866
53	0x3dcf3e3d	0.10119293
54	0x3d8d716b	0.069063984
55	0xbca84b09	-0.020543592
56	0x3d08f88f	0.03344017
57	0x3e720c9e	0.23637626
58	0x3caafbcf	0.020872025
59	0x3df9997f	0.1218748
60	0xbdb0fb20	-0.08641648
61	0x3dcadbed	0.09905229
62	0x3d8a74fd	0.06760595
63	0xbd67d56b	-0.056600016
64	0x3d8ead44	0.069666415
65	0xbdcde477	-0.10053342
66	0x3e21aab8	0.1578778
67	0x3d957928	0.07298499
68	0x3cdfc78f	0.027316837
69	0xbc906ab0	-0.017628998
70	0x3e1a1c1b	0.15049784
71	0x3dcac8f7	0.09901612
72	0x3e0f2882	0.13980296
73	0xbcaf628b	-0.021409294
74	0xbd6cef7b	-0.057845574
75	0x3d3446ce	0.044012837
76	0x3e12d007	0.14337169
77	0xbde91b30	-0.11382139
78	0x3e3daf8c	0.18523997
79	0x3d04795b	0.032342296
80	0x3e130e8d	0.1436102
81	0xbd159511	-0.036519114
82	0xbe049aa4	-0.12949616
83	0xbd89b83a	-0.067245916
84	0x3c4f0035	0.012634327
85	0xbe4121a7	-0.18860494
86	0x3c43932b	0.011936943
87	0xbda6b218	-0.081394374
88	0x3c00d2d4	0.007862765
89	0x3b604091	0.0034218172
90	0xbd88fbad	-0.06688628
91	0x3e0cc9e5	0.13748892
92	0x3dc1c02a	0.094604805
93	0xbcc47c98	-0.023985192
94	0x3cd5c079	0.026092755
95	0xbc968fb8	-0.018379077
96	0xbbd8772d	-0.0066060037
97	0xbb8e7007	-0.004346851
98	0x3e4df904	0.20114523
99	0x3e2077b9	0.1567067
100	0x3cc81452	0.024423752
101	0x3c051316	0.008122226
102	0x3d77c110	0.060486853
103	0x3da026e0	0.07819915
104	0x3dc9f8d8	0.09861916
105	0x3d295a9a	0.04134617
106	0x3c900b03	0.017583376
107	0xbe112581	-0.14174463
108	0xbc14d93a	-0.009084994
109	0xbdf65d84	-0.120295554
110	0xbba67ff7	-0.0050811726
111	0x3e1d0131	0.15332486
112	0x3c970e90	0.018439561
113	0xbd544137	-0.051820006
114	0x3b8735cc	0.004126286
115	0xbd1499da	-0.036279537
116	0xbcacd6e7	-0.021098567
117	0x3b794e15	0.0038040925
118	0xbda3a0ad	-0.07989631
119	0xbd3770fd	-0.04478549
120	0xbd72f1bc	-0.059312567
121	0xbdad72e9	-0.08469183
122	0xbcd89bf0	-0.026441544
123	0xbcead104	-0.02866412
124	0xbca9b484	-0.02071596
125	0xbe4a80a8	-0.19775641
126	0x3b74e34b	0.0037366922
127	0x3d90fc71	0.070793994
128	0xbcc371cf	-0.02385798
129	0xbdcfceca	-0.10146864
130	0xbd723f2b	-0.059142273
131	0x3c2fe12a	0.010734836
132	0xbe3bdb23	-0.18345313
133	0x3b0d6f85	0.0021581363
134	0x3c6035d3	0.013684708
135	0xbd8c47a2	-0.068496004
136	0xbc1a3569	-0.009412148
137	0x3d8df2c9	0.06931073
138	0xbc5cb3cc	-0.013470601
139	0x3e435d6e	0.1907861
140	0x3d0373ee	0.03209298
141	0xbce0fdf2	-0.02746484
142	0xbdbc4db7	-0.091945104
143	0xbb568ffd	-0.0032739632
144	0xbc935c94	-0.01798848
145	0xbdfeaab9	-0.124349065
146	0x3caac253	0.020844614
147	0x3d9a5a03	0.075366996
148	0x3d74f147	0.059800413
149	0xbdb97ed2	-0.09057392
150	0x3d9e448f	0.0772792
151	0x3dc8b5ae	0.09800278
152	0xbe098863	-0.13430934
153	0xbd8c9328	-0.06864005
154	0xbcac449d	-0.021028811
155	0x3dc354f6	0.095376894
156	0x3ce8cb21	0.028417172
157	0x3d29f391	0.04149205
158	0x3dede454	0.11615816
159	0xbe2a0c2f	-0.1660621
160	0xbc5262b7	-0.012840918
161	0x3d0ef074	0.034897283
162	0xbd6705fb	-0.056402188
163	0x3df19df2	0.11797704
164	0x3dd294ee	0.10282312
165	0x3dc010b1	0.09378184
166	0x3cd01d2a	0.025404532
167	0xbd5a6904	-0.053322807
168	0x3df97bc7	0.12181812
169	0x3c78dffa	0.015190119
170	0x3d807c33	0.06273689
171	0xbd73ce7b	-0.059523087
172	0x3d821965	0.063525
173	0xbdee8ade	-0.116475806
174	0xbdd6e818	-0.10493487
175	0x3d1d557d	0.038411606
176	0xbc015996	-0.007894894
177	0x3be9b8ab	0.00713261
178	0xbdcd4de6	-0.100246236
179	0x3e0d30f5	0.13788207
180	0xbdd22218	-0.10260409
181	0x3db32e83	0.08749106
182	0xbc6a9b9a	-0.014319325
183	0x3dcaa5d1	0.09894908
184	0x3e0408d0	0.12893987
185	0xbd267db0	-0.04064721
186	0x3c1517f2	0.009099947
187	0xbdd3d9db	-0.10344287
188	0xbcc8dceb	-0.024519404
189	0x3cda3353	0.026635801
190	0x3cfc0bee	0.030767407
191	0xbda045b4	-0.07825795
192	0xbe20c2a8	-0.15699255
193	0xbbc89af0	-0.0061219856
194	0x3e0ec7e5	0.13943441
195	0x3c82cd4e	0.015967038
196	0x3e4b1d73	0.19835453
197	0x3d4db851	0.050224606
198	0x3e8d86e5	0.2764198
199	0xbe08cd87	-0.13359652
200	0xbd5f9e05	-0.05459406
201	0xbb81ace2	-0.003957377
202	0xbde3e69b	-0.11127969
203	0x3d6410fa	0.055680253
204	0x3d0551ce	0.03254872
205	0x3dbfeaf7	0.09370988
206	0x3e04941a	0.12947121
207	0x3c8fe937	0.01756726
208	0x3e1c85d5	0.15285428
209	0x3d59e200	0.053194046
210	0xbde84b8c	-0.113425344
211	0xbe729e5e	-0.23693225
212	0xbdc3bf2c	-0.095579475
213	0xbda3eef1	-0.08004559
214	0xbdba1121	-0.09085298
215	0xbd9de88f	-0.07710373
216	0xbe544c82	-0.2073231
217	0x3e53e03d	0.20691009
218	0x3e2e997e	0.1705074
219	0xbc8e83f3	-0.017396903
220	0x3b07521f	0.0020648313
221	0x3d1c4f7e	0.038161747
222	0xbe4d671c	-0.20058864
223	0x3d94948d	0.07254896
224	0xbd740fad	-0.059585262
225	0xbde5124f	-0.11185133
226	0x3e233fbb	0.1594228
227	0x3d838ae7	0.06422978
228	0x3e3c9de6	0.18419608
229	0xbdb8c762	-0.09022404
230	0x3d109750	0.035300553
231	0xb9578d38	-0.00020556606
232	0x3d237205	0.03990366
233	0xbcdb2d3f	-0.026754973
234	0xbcc455fa	-0.023966778
235	0xbd5cf959	-0.053948734
236	0xbe4504ef	-0.19240163
237	0xbd5557a8	-0.05208555
238	0xbd0f23ab	-0.034946125
239	0x3d60c71c	0.054877385
240	0x3ddc9d94	0.10772243
241	0x3d510d72	0.051038213
242	0xbdae364b	-0.08506449
243	0x3e0b53ab	0.13606136
244	0xbe17799a	-0.14792481
245	0x3dbcda73	0.092213534
246	0x3db85c00	0.090019226
247	0xb990c372	-0.00027611438
248	0xbe032048	-0.12805283
249	0xbc78b063	-0.015178773
250	0xbe193bcc	-0.14964217
251	0x3c8bb977	0.01705621
252	0x3e666c6b	0.22502296
253	0xbe6b6978	-0.22989452
254	0xbc8b95b7	-0.017039163
255	0x3d02c7fe	0.03192901

rnn.rnn_cell.bias_ih f4 [64]
0	0xbd9914dc	-0.07474682
1	0xbdd9a4db	-0.10627147
2	0xbdea881f	-0.11451744
3	0x3dcb1816	0.099167034
4	0xbd9cfeca	-0.07665785
5	0xbd22e1f3	-0.039766263
6	0x3cc70f5b	0.024299314
7	0xbdb80e21	-0.0898707
8	0xbd9eb34f	-0.07749044
9	0x3da3ea28	0.08003646
10	0x3ce7c3ed	0.028291667
11	0x3d36fcb7	0.0446746
12	0x3dd448eb	0.103654705
13	0x3d35311b	0.044236284
14	0x3d55dc32	0.052211948
15	0x3cb91d85	0.022597084
16	0xbd3c1055	-0.045914013
17	0xbdc5e636	-0.0966305
18	0xbdb0cdd2	-0.08633007
19	0xbd871e30	-0.06597555
20	0xbd82f720	-0.063947916
21	0x3de25703	0.110517524
22	0x3c27d9aa	0.010244766
23	0xbdf03fc1	-0.1173091
24	0x3d5beb7f	0.053691383
25	0xbdf1e4bb	-0.11811205
26	0x3d8c461b	0.06849309
27	0xbdb37739	-0.08762974
28	0xbdcc3a16	-0.099720165
29	0x3cb458e3	0.02201504
30	0xbe26a780	-0.16274834
31	0xbc6f9eba	-0.014625246
32	0x3cbccd8b	0.02304723
33	0x3d8d2241	0.06891299
34	0x3d17b1d9	0.037034843
35	0x3d22c1a6	0.03973546
36	0x3d94bc2d	0.07262454
37	0x3de60886	0.112320945
38	0xbd5a4e24	-0.053297177
39	0xbb6b0dcf	-0.0035866385
40	0xbda1364c	-0.078716844
41	0x3d93a698	0.072095096
42	0x3db1edd2	0.08687939
43	0x3d143da8	0.036191612
44	0x3cb95201	0.02262211
45	0xbc08739a	-0.008328343
46	0xbdc2a9b5	-0.09505025
47	0x3d802cf2	0.06258573
48	0xbd0fc750	-0.03510219
49	0x3cd04f7d	0.025428528
50	0xbdf7cc5c	-0.12099525
51	0x3d40268f	0.046911772
52	0xbdf5a527	-0.11994391
53	0xbdd38652	-0.10328354
54	0xbde1c08f	-0.11023056
55	0xbcfbde97	-0.030745788
56	0x3d95d9da	0.073169425
57	0x3bee906f	0.0072804014
58	0x3d6bdb59	0.057582233
59	0xbde7b525	-0.113138475
60	0x3c2e3d47	0.010634727
61	0x3d3e955f	0.04652917
62	0x3c7b174b	0.015325378
63	0xbd1dc85a	-0.03852115

rnn.rnn_cell.bias_hh f4 [64]
0	0x3cc766f9	0.024341093
1	0x3d03b272	0.0321526
2	0xbddc7e6d	-0.10766301
3	0x3cf3d126	0.029762816
4	0x3cd13733	0.025539016
5	0x3d7a6b90	0.061137736
6	0xbcc64b09	-0.024205701
7	0x3c9bd639	0.019023048
8	0xbd97c871	-0.07411278
9	0xbdbcec96	-0.09224813
10	0x3d712c36	0.058880053
11	0xbd55426f	-0.05206531
12	0xbd1659b3	-0.036706638
13	0xbd5a3a38	-0.053278178
14	0xbd51d4aa	-0.051228203
15	0x3de4ca0b	0.11171349
16	0x3cb06954	0.0215346
17	0x3d418fa0	0.047256112
18	0x3d6114ce	0.05495148
19	0x3d006e26	0.031355046
20	0x3dc0a4ee	0.09406458
21	0x3d65e192	0.056123324
22	0xbd2ec584	-0.042668834
23	0x3d97fabd	0.074208714
24	0x3dd0d539	0.10196919
25	0xbde2083a	-0.11036725
26	0xbd92496b	-0.071429096
27	0x3c99af50	0.018760353
28	0x3dbc5f56	0.091978714
29	0x3ccc89b4	0.024968006
30	0x3d982e3a	0.07430692
31	0xbdcacdad	-0.09902511
32	0xbdefd6d3	-0.11710896
33	0x3ddb890f	0.10719501
34	0xbe017b06	-0.12644586
35	0xbd95099c	-0.072772235
36	0xbdb29117	-0.0871908
37	0x3e0c5a5e	0.13706347
38	0x3dcaca30	0.099018455
39	0xbd0dbaea	-0.034602083
40	0x3dd8406e	0.10559164
41	0xbdf98354	-0.12183252
42	0xbd81398e	-0.06309806
43	0xbb8aff88	-0.0042418875
44	0x3d82c23a	0.06384702
45	0xbdd8f18e	-0.10592948
46	0xbcca4203	-0.02468968
47	0xbdb6b985	-0.08922104
48	0x3d85b138	0.065279424
49	0xbdfa82e6	-0.12231998
50	0x3cb1211b	0.021622231
51	0xbddbba1d	-0.10728858
52	0x3d887a55	0.06663958
53	0x3dce7a2c	0.10081896
54	0x3db47bed	0.088126995
55	0x3b86afa8	0.0041102953
56	0x3c4f184f	0.012640073
57	0xbccd9f01	-0.025100233
58	0xbdd63db3	-0.10460987
59	0xbdf9703b	-0.121796094
60	0x3d6bf208	0.057603866
61	0x3dec1931	0.115282424
62	0x3b80e17e	0.0039331308
63	0xbda688b0	-0.0813154

fc1.weight f4 [64, 64]
0	0xbd28bea9	-0.041197453
1	0xbd7454b4	-0.05965109
2	0x3dcdc081	0.10046483
3	0xbdfe8d0d	-0.12429247
4	0x3dc340f8	0.09533876
5	0xbe111f9b	-0.14172213
6	0xbe07c549	-0.13258852
7	0xbe016314	-0.12635452
8	0xbda41358	-0.08011502
9	0xbd15c748	-0.036567003
10	0xbdd4ffe0	-0.10400367
11	0x3c7e199e	0.015509037
12	0x3df8887e	0.12135409
13	0xbe05335d	-0.13007875
14	0x3d622167	0.055207636
15	0xbd0e4fc2	-0.03474403
16	0x3c569ab7	0.01309841
17	0x3c5ced96	0.013484379
18	0xbdb8c848	-0.090225756
19	0x3cc4cefe	0.024024483
20	0xbe089e62	-0.13341668
21	0xbd851e1c	-0.064998835
22	0xbc0a4af7	-0.008440725
23	0x3df0cf01	0.11758233
24	0xbcab9bab	-0.020948252
25	0x3d4a9779	0.04946086
26	0xbd031606	-0.032003425
27	0xbd2f92d9	-0.042864654
28	0x3d701332	0.058612056
29	0x3cd5af27	0.026084496
30	0x3c90c66f	0.017672746
31	0xbe0be0ae	-0.13659927
32	0x3d36dc45	0.04464366
33	0x3da9505f	0.08267283
34	0xbcd3252d	-0.025774563
35	0x3b950596	0.004547785
36	0x3dd0da1e	0.101978526
37	0x3c16ccee	0.0092041325
38	0xbc8c8cf7	-0.017157061
39	0xbd8fe7e4	-0.070266515
40	0xbcd865b1	-0.026415678
41	0x3d9992e0	0.07498717
42	0x3d27ba9c	0.04094945
43	0xbdf5d935	-0.120043196
44	0x3d649459	0.055805538
45	0x3e0710a0	0.13189936
46	0x3d3f62f5	0.046725232
47	0x3bf887d8	0.007584553
48	0x3e135efe	0.14391705
49	0xbc28e937	-0.010309509
50	0xbd99cf5e	-0.07510255
51	0xbd0db1e4	-0.034593478
52	0xbd11dfbe	-0.035613768
53	0x3d5d131d	0.053973306
54	0x3d102cfd	0.035199154
55	0x3d6f1cf9	0.05837724
56	0xbd994efb	-0.074857675
57	0x3e520581	0.20509912
58	0xbd86308c	-0.06552228
59	0x3e06ddd7	0.13170563
60	0x3cfb02fb	0.03064107
61	0xbdc7db6c	-0.09758648
62	0xbdaecc4e	-0.08535062
63	0x3d88148a	0.066445425
64	0xbd6f1c07	-0.05837634
65	0x3e02f1a4	0.12787491
66	0xbccc29aa	-0.02492221
67	0x3d6078e0	0.054802775
68	0x3da06b17	0.07832926
69	0xbdbacc95	-0.09121052
70	0x3da3f07a	0.08004852
71	0xbd179515	-0.03700741
72	0xbd084027	-0.033264305
73	0xbdcb3042	-0.09921314
74	0x3e0f0c7c	0.13969606
75	0xbd8bb235	-0.068211
76	0xbdcf587d	-0.101243
77	0x3e18ac58	0.14909494
78	0xbc0ff7dc	-0.008787122
79	0x3d3a7b33	0.04552765
80	0x3e0524f6	0.1300238
81	0x3d8cdf4b	0.06878527
82	0x3e1a344a	0.15059009
83	0xbdc7adb7	-0.0974993
84	0xbd420f4a	-0.047377862
85	0x3de0297b	0.10945412
86	0x3dba7905	0.09105114
87	0x3db9b446	0.090675876
88	0x3e2ba272	0.16761187
89	0xbd73a19c	-0.059480295
90	0xbc5e6aa6	-0.013575232
91	0xbd2046a7	-0.03912988
92	0x3d29c549	0.04144791
93	0x3d9ead45	0.07747892
94	0x3da77a06	0.08177571
95	0x3d3752df	0.044756766
96	0xbcc968be	-0.024586078
97	0x3daa8d90	0.08327782
98	0x3ba8a04c	0.005146062
99	0xbe129480	-0.14314461
100	0x3cd5d03e	0.026100274
101	0x3cde6809	0.027149217
102	0xbd492c07	-0.049114253
103	0xbdf1db4a	-0.11809404
104	0xbd792cf7	-0.060833897
105	0xbdc2a70a	-0.095045164
106	0x3c60f3e6	0.013730025
107	0x3db31004	0.08743289
108	0xbdd312bb	-0.10306307
109	0x3dd49727	0.103803925
110	0x3ddfa92e	0.1092094
111	0x3b934310	0.0044940785
112	0xbd692e56	-0.056928955
113	0x3da93b73	0.08263292
114	0x3c99ccd1	0.018774422
115	0x3ddfdf2e	0.1093124
116	0xbca9afb1	-0.020713659
117	0xbc6114fb	-0.013737912
118	0xbdbc5e81	-0.09197713
119	0xbd1a9294	-0.037737444
120	0xbe002a3b	-0.1251611
121	0xbd0a7a6d	-0.03380816
122	0xbcf67816	-0.030086558
123	0x3d055175	0.032548387
124	0xbdf5b91b	-0.11998197
125	0xbdaefdae	-0.08544479
126	0xbdad0c2d	-0.08449588
127	0xbd9e6cf8	-0.07735628
128	0xbd32ea09	-0.043680225
129	0x3d63eee8	0.05564776
130	0x3cd195db	0.025584152
131	0xbdd1fc27	-0.10253172
132	0x3c82b6ad	0.015956247
133	0xbda9af18	-0.082853496
134	0xbde023f1	-0.10944355
135	0x3e1d62cc	0.1536972
136	0x3cf85a00	0.030316353
137	0x3e16806d	0.14697428
138	0x3e1ffc29	0.15623535
139	0xbc65333a	-0.013989264
140	0xbd60c867	-0.05487862
141	0xbde53b02	-0.111928955
142	0x3dd9d310	0.1063596
143	0x3cac4919	0.02103095
144	0xbd8e61f6	-0.06952278
145	0x3d34fb15	0.044184763
146	0xbda6ff46	-0.08154158
147	0xbd842e7e	-0.0645418
148	0xbd628927	-0.05530658
149	0xbe15f97e	-0.14645955
150	0x3e048121	0.12939884
151	0x3cc7a4ea	0.02437063
152	0xbd227e2c	-0.039671108
153	0x3d339500	0.04384327
154	0x3e08cc77	0.13359247
155	0x3c12fac6	0.008970922
156	0xbe034c07	-0.12821971
157	0xbc282ab4	-0.0102640875
158	0x3d37904a	0.04481534
159	0xbc96b717	-0.01839785
160	0xbdecdac5	-0.115651645
161	0xbd7cebbe	-0.06174826
162	0x3e20ad81	0.15691186
163	0x3d61dfa4	0.05514492
164	0xbd7a85eb	-0.06116287
165	0x3e07cc8a	0.13261619
166	0x3c7c1f21	0.015388281
167	0xbd20ccf5	-0.039257962
168	0xbe56a050	-0.20959592
169	0x3d3d11c8	0.046159536
170	0xbd93e625	-0.07221631
171	0x3e004461	0.12526084
172	0xbd991aac	-0.074757904
173	0x3e181a2a	0.14853731
174	0xbd721493	-0.059101652
175	0xbc9d0f9f	-0.019172488
176	0xbe58d054	-0.21173221
177	0xba916e02	-0.0011095407
178	0xbdeca9c2	-0.11555816
179	0xbdfa772c	-0.122297615
180	0x3d9412ec	0.072301716
181	0xbdfc0cac	-0.123071045
182	0x3dbfe87c	0.09370515
183	0xbe04f2df	-0.12983273
184	0xbdf397fb	-0.11894222
185	0x3e29c20f	0.16577934
186	0x3e34a802	0.17642215
187	0xbddc4959	-0.107561775
188	0xbe29fc95	-0.16600259
189	0xb8cc36ce	-9.737686e-05
190	0x3db380e8	0.08764821
191	0xbd8ee696	-0.069775745
192	0x3d8b2f45	0.06796125
193	0xbd0ca217	-0.03433427
194	0x3d711e1e	0.058866613
195	0x3d9aa1b3	0.07550373
196	0x3d0379ce	0.032098584
197	0x3d858996	0.06520383
198	0x3c21e668	0.009881593
199	0x3d68e5cd	0.05685978
200	0xbd9154e9	-0.070962735
201	0xbe17c1c5	-0.14820011
202	0x3e335b66	0.17515334
203	0xbdb4b98f	-0.08824455
204	0xbd060ade	-0.032725208
205	0xbdae7b4d	-0.085196115
206	0xbcf1f2be	-0.029534694
207	0xbdb86fa5	-0.090056695
208	0xbe60d903	-0.21957783
209	0xbdec091c	-0.11525175
210	0xbdb4525f	-0.088047735
211	0x3e43c7eb	0.19119231
212	0xbcf1b922	-0.029507224
213	0xbc17a8ab	-0.009256522
214	0xbd81ee02	-0.063442245
215	0x3cee38a7	0.029079748
216	0x3d776829	0.06040207
217	0xbe08eb1a	-0.13370934
218	0x3de44024	0.11145046
219	0x3d538622	0.05164159
220	0x3d8d931d	0.06912825
221	0x3c532082	0.012886168
222	0xbb0f0221	-0.0021821337
223	0x3d1f5aff	0.03890514
224	0x3bb5b943	0.0055457666
225	0xbcb344c2	-0.021883372
226	0xbd8d0258	-0.06885213
227	0x3dd849cf	0.10560953
228	0x3de2cb83	0.11073973
229	0x3d1461ef	0.03622621
230	0xbb302424	-0.002687701
231	0xbd80be9d	-0.062863566
232	0x3d67d25d	0.056597102
233	0x3d79c1c0	0.06097579
234	0x3d828dc5	0.06374697
235	0xbd8c08cf	-0.068376176
236	0xbdea808d	-0.114503
237	0x3d32ef6c	0.04368536
238	0x3d50e60b	0.051000636
239	0x3d446598	0.04794845
240	0xbd32d21e	-0.043657415
241	0x3e69b874	0.2282427
242	0xbd293523	-0.04131044
243	0x3d4d441b	0.05011378
244	0xbe081dc5	-0.13292606
245	0x3dd8afc2	0.10580398
246	0xbd424b84	-0.0474353
247	0xbc903bc2	-0.01760662
248	0xbd3fe47e	-0.046848767
249	0xbda985fd	-0.08277509
250	0xbe47fd27	-0.19530164
251	0xbda5666a	-0.080761746
252	0xbd4706ab	-0.048590343
253	0xbe3251ca	-0.17414013
254	0xbdbe3fbb	-0.09289499
255	0x3dddcf4f	0.108305566

fc1.bias f4 [64]
0	0x3c85b234	0.016320325
1	0x3c820b38	0.01587449
2	0xbd01fcbc	-0.031735167
3	0xbdc57de8	-0.09643155
4	0x3d8f236e	0.069891796
5	0x3d4bdc2b	0.049770515
6	0x3d13a719	0.03604803
7	0x3db9ede2	0.09078576
8	0x3b9acdfa	0.0047242614
9	0x3c882f97	0.016624255
10	0xbda588fd	-0.08082769
11	0xbc88acfb	-0.016684046
12	0x3ce46b8b	0.027883312
13	0x3df52bed	0.11971269
14	0x3dca58d7	0.09880226
15	0x3df5ebf5	0.12007896
16	0x3cca91f9	0.024727808
17	0xbcba85d6	-0.022768896
18	0xbc30f8db	-0.010801519
19	0xbd3b7e01	-0.045774464
20	0x3df34e96	0.118802235
21	0x3dbc3364	0.091894895
22	0xbd0c08d4	-0.034188107
23	0xbd9c4910	-0.07631123
24	0x3d281931	0.04103965
25	0xbdfb1354	-0.12259546
26	0xbd289389	-0.041156325
27	0x3dfaed80	0.12252331
28	0x3ddc34fb	0.10752293
29	0xbd4370d6	-0.04771503
30	0x3dfb895a	0.12282057
31	0x3e1369b5	0.14395793
32	0x3e1e9470	0.15486312
33	0x3d06d187	0.032914665
34	0x3dba5962	0.0909908
35	0x3df10d04	0.11770061
36	0xbc806da4	-0.01567728
37	0xbd8f4099	-0.06994743
38	0x3d220979	0.039559815
39	0x3e040c82	0.12895396
40	0x3d8ef97a	0.06981178
41	0xbd7f8d44	-0.06239058
42	0x3ce62704	0.028094776
43	0x3c674bdc	0.014117207
44	0x3d0a5d6d	0.033780504
45	0x3da25eae	0.07928215
46	0xbd35111b	-0.044205766
47	0x3dd2b651	0.1028868
48	0x3d69910a	0.057023086
49	0xbd6990da	-0.057022907
50	0x3d9ab51e	0.075540766
51	0xbc48460b	-0.012223731
52	0xbd485d61	-0.048917178
53	0xbd22c913	-0.03974254
54	0x3d946deb	0.07247528
55	0xbd63bfdf	-0.055602904
56	0xbde45e29	-0.11150772
57	0x3db42ec6	0.08797984
58	0xbc165602	-0.009175779
59	0x3d880c80	0.06643009
60	0xbd9ddeed	-0.07708535
61	0x3db1b34d	0.08676777
62	0xbd9c5494	-0.076333195
63	0xbcc5e646	-0.024157654

fc2.weight f4 [18, 64]
0	0xbda13b15	-0.07872597
1	0x3e5b1c38	0.21397483
2	0x3c4fef92	0.012691395
3	0x3e0e6c8c	0.13908595
4	0xbe3ac044	-0.18237406
5	0x3de12d41	0.109949596
6	0xbdbffe0b	-0.09374627
7	0xbe6c0ca1	-0.23051693
8	0x3d57b97d	0.05266713
9	0x3daea209	0.085269995
10	0xbdd7f064	-0.10543898
11	0x3d8c55a9	0.06852276
12	0xbd06f004	-0.03294374
13	0x3cef9068	0.029243663
14	0x3cac600d	0.021041894
15	0x3ce3dd1d	0.027815396
16	0x3ddae9d4	0.106891304
17	0x3d61c11a	0.055115797
18	0xbd9e2287	-0.07721429
19	0xbdba51ae	-0.090976104
20	0xbda41d8f	-0.0801345
21	0x3d07584a	0.033043183
22	0xbc88641b	-0.016649297
23	0xbe4a85a0	-0.19777536
24	0x3d6e1d4d	0.058133412
25	0xbbef9651	-0.0073116203
26	0x3e2fa6c9	0.17153467
27	0xbddcc186	-0.10779099
28	0xbe332f31	-0.17498471
29	0x3d464c0f	0.04841238
30	0xbd9961d7	-0.074893646
31	0x3de0417d	0.10949991
32	0x3db42026	0.08795194
33	0xbca43eb3	-0.020049429
34	0x3dc4ce4d	0.09609661
35	0x3dc553af	0.09635102
36	0xbaa39e14	-0.0012483024
37	0x3da7e48a	0.08197887
38	0x3d5269b3	0.051370334
39	0xbc07fb65	-0.008299683
40	0x3db99c40	0.090630054
41	0xbd65d0cf	-0.05610734
42	0x3c3ed18f	0.011646642
43	0x3d1c8aff	0.038218495
44	0x3db8f931	0.090319045
45	0xbd2e72a4	-0.0425898
46	0xbda57d13	-0.08080497
47	0x3dd9d8ae	0.106370315
48	0xbdd511f8	-0.10403818
49	0xbd901331	-0.070349105
50	0xbe147341	-0.14497091
51	0x3d344e6e	0.04402011
52	0xbdf42f27	-0.11923056
53	0xbcc1d4a1	-0.02366096
54	0xbc04efdd	-0.0081138285
55	0xbe05ab0d	-0.13053532
56	0x3e29f4bf	0.1659727
57	0x3dce6a53	0.100788735
58	0xbd8f89f5	-0.07008735
59	0xbd377a19	-0.044794176
60	0xbd3f5407	-0.046710994
61	0xbcd97037	-0.026542766
62	0x3c23212f	0.009956642
63	0xbd81a22d	-0.06329761
64	0x3e01d441	0.12678625
65	0xbda57ae0	-0.08080077
66	0xbe03fe36	-0.12889943
67	0x3dfd6988	0.12373644
68	0xbe0dd6d1	-0.13851477
69	0x3d2d0493	0.04224069
70	0xbdddbc28	-0.108269036
71	0x3e03a98a	0.12857643
72	0xbe547422	-0.20747426
73	0xbe11bad1	-0.14231421
74	0x3de04aac	0.109517425
75	0xbc3e09c6	-0.01159901
76	0xbe001eb7	-0.12511717
77	0xbe19f7a8	-0.1503588
78	0x3d149783	0.036277305
79	0xbd181284	-0.037127033
80	0xbcda6cc6	-0.026663195
81	0xbdce2ff5	-0.10067741
82	0xbe5b61b8	-0.21423995
83	0xbe7ed355	-0.24885304
84	0xbc5cad9b	-0.013469125
85	0xbdc0923a	-0.094028905
86	0x3d684e9a	0.056715585
87	0xbd80f5b7	-0.062968664
88	0xbdf6e72d	-0.12055812
89	0xbe239705	-0.15975578
90	0xbe22f17f	-0.15912436
91	0x3d44aed0	0.048018277
92	0xbd9efc7e	-0.07763003
93	0x3dab4d72	0.08364381
94	0xbe080035	-0.13281329
95	0xbe2fe9f2	-0.17179087
96	0xbe00fabb	-0.12595646
97	0x3d90e0c0	0.07074118
98	0x3d921869	0.07133562
99	0xbd68f115	-0.05687054
100	0x3d7a431f	0.061099168
101	0xbdd4e9ef	-0.10396182
102	0xbdace3b6	-0.0844187
103	0x3cfc6b13	0.030812776
104	0xbbf99805	-0.007616999
105	0x3d73d64f	0.059530552
106	0xbd7694ff	-0.060200687
107	0x3d3b46cb	0.04572181
108	0x3dc13fe5	0.09436015
109	0x3d35e0a4	0.044403687
110	0x3e0fadd4	0.14031154
111	0x3d85cbad	0.06532989
112	0xbe147a91	-0.1449988
113	0x3a0752e4	0.0005162193
114	0x3d1a710c	0.037705466
115	0x3dcc09b9	0.09962792
116	0xbe710aed	-0.23539324
117	0x3c7e0a4d	0.015505386
118	0x3e0f4540	0.1399126
119	0xbe7e78a1	-0.24850704
120	0x3d93f6ac	0.07224783
121	0x3d879b2b	0.06621393
122	0xbe29ef02	-0.1659508
123	0xbbce5725	-0.0062970095
124	0xbd9735a8	-0.07383281
125	0xbe92438d	-0.28567162
126	0xbd384430	-0.044986904
127	0xbd85e91b	-0.06538602
128	0xbdd7e0ed	-0.10540948
129	0xbd4d1cb3	-0.050076198
130	0x3e2ffa45	0.17185314
131	0xbcd93e24	-0.026518889
132	0xbd7128f3	-0.058876943
133	0x3c71acec	0.0147507
134	0x3d954551	0.07288612
135	0xbb0263aa	-0.001989583
136	0x3dd0b3d0	0.101905465
137	0xbdee698a	-0.11641224
138	0xbc4e4fea	-0.012592295
139	0xbbbc4640	-0.005745679
140	0xbd87f954	-0.066393524
141	0x3ce6e9a2	0.028187577
142	0xbd6e6181	-0.058198456
143	0x3e28982a	0.16464296
144	0x3e063770	0.13107085
145	0x3dafe6f5	0.085889734
146	0x3caaa00b	0.020828268
147	0xbb3fca33	-0.0029264807
148	0x3db76085	0.089539565
149	0x3bd968d2	0.00663481
150	0x3d106d21	0.035260323
151	0xbcc3fb32	-0.02392349
152	0x3d1f5d0d	0.0389071
153	0x3db83b35	0.08995668
154	0x3bf2702b	0.0073986254
155	0xbe322fc1	-0.17401029
156	0x3d9957c0	0.0748744
157	0xbe1c6f95	-0.1527694
158	0xbd742c50	-0.059612572
159	0x3cbd0285	0.02307249
160	0xbcaaa9e9	-0.020832973
161	0xbbc2503d	-0.0059299753
162	0xbda347c9	-0.07972676
163	0x3d74aaf1	0.059733335
164	0xbbadb770	-0.0053014085
165	0xbdd63369	-0.104590245
166	0x3e07ea30	0.13272929
167	0x3d130c68	0.035900503
168	0x3dca46e2	0.09876801
169	0xbcf4f003	-0.029899603
170	0xbdcfa096	-0.10138051
171	0xbd9655e4	-0.07340601
172	0xbd59ae78	-0.053144902
173	0xbe051058	-0.12994516
174	0xbe5d9610	-0.21639276
175	0x3cdb15c0	0.02674377
176	0x3e2340c9	0.15942682
177	0x3de2e473	0.110787295
178	0xbe245ac1	-0.16050245
179	0x3cdb5b0b	0.026776811
180	0xbab8b80a	-0.0014092934
181	0xbc105bd9	-0.008810961
182	0x3bff3713	0.007788548
183	0xbdd61727	-0.10453635
184	0xbd12b882	-0.03582049
185	0x3d4a451a	0.049382307
186	0x3cd223b3	0.025651788
187	0xbd2a3045	-0.04154994
188	0xbd5e5f27	-0.054289963
189	0x3da946eb	0.0826548
190	0xbd35e21c	-0.044405088
191	0x3dee3266	0.116307065
192	0x3c88190c	0.016613506
193	0xbe14f8e5	-0.1454807
194	0xbd47f409	-0.048816714
195	0xbdab9e52	-0.083798066
196	0xbd91ce28	-0.07119399
197	0xbc97427c	-0.01846432
198	0x3d2dc876	0.042427503
199	0xbd9d3654	-0.07676378
200	0x3d820f63	0.06350591
201	0x3b2444bf	0.002506539
202	0xbd374dad	-0.04475181
203	0xbdbab229	-0.091160126
204	0x3d381285	0.044939537
205	0x3db9d7b7	0.090743475
206	0xbe1da072	-0.15393236
207	0x3c98511e	0.018593367
208	0x3d5d4397	0.054019537
209	0xbd3bc94b	-0.045846265
210	0x3dd0c7ed	0.10194383
211	0x3e171b3b	0.14756481
212	0xbdbcc0f8	-0.09216493
213	0xbde1485a	-0.11000128
214	0xbe109716	-0.14120135
215	0xbc8d8168	-0.01727362
216	0xbde40ae3	-0.11134889
217	0xbd21a9f6	-0.039468728
218	0x3d8813bd	0.0664439
219	0xbeba487f	-0.36383435
220	0x3d9cfcaf	0.07665383
221	0xbb481eca	-0.003053593
222	0xbdb1c766	-0.0868061
223	0x3d89c829	0.06727631
224	0xbc2fcdcb	-0.010730217
225	0xbdff7f8e	-0.12475501
226	0xbccc78cc	-0.024959944
227	0xbd3e9a9c	-0.046534166
228	0xbd99eef2	-0.07516278
229	0xbde433f1	-0.111427195
230	0xbd65d94a	-0.056115426
231	0x3e1d775b	0.15377562
232	0x3dc0bd90	0.09411156
233	0xbdb22ca4	-0.08699921
234	0xbcbffa1d	-0.023434693
235	0xbd53de3b	-0.051725607
236	0xbd553acb	-0.052058022
237	0xbdd6c5a9	-0.104869194
238	0xbe22dd86	-0.15904817
239	0x3da1e76d	0.07905469
240	0xbd500e9e	-0.05079519
241	0xbc19def6	-0.009391537
242	0xbce2c666	-0.027682494
243	0xbc77288a	-0.015085349
244	0x3c23e3e7	0.010003067
245	0xbe606123	-0.21912055
246	0x3db3c0df	0.087770216
247	0xbce0f604	-0.02746106
248	0xbd2d48d3	-0.04230578
249	0xbd5fbc7b	-0.05462311
250	0xbb5da89f	-0.003382243
251	0x3d3e6ff3	0.04649348
252	0x3d34f236	0.044176303
253	0x3d2e0cd3	0.0424927
254	0xbdc8b4e0	-0.09800124
255	0x3c7e9364	0.01553807

fc2.bias f4 [18]
0	0x3d3bff13	0.045897555
1	0xbc4df754	-0.012571175
2	0xbde13668	-0.10996705
3	0x3bac668a	0.005261247
4	0xbd91fb85	-0.07128052
5	0xba2de931	-0.00066341745
6	0xbd9098ff	-0.07060432
7	0x3d8895b9	0.06669182
8	0xbd180f4a	-0.037123956
9	0xbd9fcfbd	-0.07803295
10	0xbc74fcfc	-0.014952894
11	0x3d7f390d	0.062310267
12	0xbd0026c0	-0.031286955
13	0x3d9eba93	0.0775043
14	0xbe1dcb8a	-0.15409675
15	0x3cae0560	0.021242797
16	0x3e188f17	0.14898334
17	0x3dace658	0.08442372
